models/ppo_trained_model/pytorch_model.bin (torch, 17916 bytes, 1 tensors)

v_head.summary.weight f4 [1, 4096]
0	0xbbdaadfd	-0.006673573
1	0x3bea59d1	0.00715182
2	0xbbf36c02	-0.007428647
3	0xbc350780	-0.011049151
4	0x3c3c1cbf	0.011481463
5	0x3b0e93f0	0.0021755658
6	0x3c037b0f	0.008024945
7	0x3c2c969d	0.010533956
8	0xbc295a4b	-0.010336469
9	0x3c046733	0.008081245
10	0x3a9ba23c	0.0011873911
11	0xbc2f512c	-0.010700505
12	0x3b8739e1	0.0041267728
13	0xba659fab	-0.0008759449
14	0x3a812692	0.0009853414
15	0x3ae4e85c	0.0017464268
16	0x3c209184	0.009800319
17	0x3bbfb74c	0.005850708
18	0xbb17f0c8	-0.0023184288
19	0x3c6f1c61	0.014594168
20	0xbbb1b313	-0.0054229586
21	0xbb6d697f	-0.003622621
22	0x39b0cdc3	0.0003372264
23	0xbb824ed8	-0.003976684
24	0x3c27e077	0.010246388
25	0xbc42b6ec	-0.011884432
26	0x3c2511dc	0.010075059
27	0x3c3f9252	0.0116926
28	0xba6681b6	-0.0008793132
29	0x3b092ec4	0.0020932416
30	0xbc0d1ba8	-0.008612551
31	0xbc235d44	-0.009970967
32	0xbb1881d5	-0.0023270745
33	0x3b323990	0.0027194954
34	0x3b584851	0.0033002088
35	0xbb1a5f4a	-0.0023555332
36	0x3b867061	0.004102752
37	0xbc8d8163	-0.01727361
38	0x3baee85d	0.0053377585
39	0x3a90ba83	0.0011041913
40	0x3c0e00eb	0.008667211
41	0xbb260bbb	-0.0025336582
42	0x3a5770d4	0.0008218412
43	0x3a52949c	0.0008033009
44	0xb94660c6	-0.00018918802
45	0xbbb19790	-0.005419679
46	0x3b8e8d4b	0.0043503395
47	0x3a4ab6c4	0.00077329227
48	0x3bf680f1	0.007522695
49	0xb97eed9d	-0.00024311845
50	0x3ba348a6	0.0049830256
51	0xbbbe8016	-0.005813609
52	0xbb97db0a	-0.004634266
53	0xbb53e409	-0.0032331964
54	0x3c1f8d4e	0.0097382795
55	0x3b267402	0.0025398736
56	0x3be1943f	0.0068841274
57	0x3c1a9e3f	0.009437143
58	0xbc17401c	-0.009231593
59	0x3b8697a9	0.004107435
60	0x3bd53de5	0.0065076225
61	0x3a551f01	0.0008129925
62	0xbc43ed70	-0.011958465
63	0xbc425e39	-0.011863285
64	0x3b168c6f	0.0022971889
65	0x3a153930	0.00056924205
66	0x39908f62	0.0002757265
67	0x3b8d67b8	0.0043153428
68	0xbb610903	-0.0034337647
69	0xbb8964bd	-0.004192917
70	0xbb91b75b	-0.0044469065
71	0x3c3cf534	0.01153307
72	0xbbb65c21	-0.005565182
73	0xbb1ba5c8	-0.0023749936
74	0xbb428758	-0.0029682722
75	0xbb40b519	-0.0029404818
76	0xbc485563	-0.012227389
77	0xbb8fd15a	-0.0043889703
78	0x3b55dc7a	0.0032632635
79	0xbb922900	-0.004460454
80	0x3b76898e	0.003761861
81	0xbc36c915	-0.01115634
82	0x3be7ee8e	0.0070779985
83	0xbb8f04c1	-0.0043645804
84	0xba181a14	-0.0005802226
85	0xbac8ffe7	-0.0015335054
86	0x3c170c10	0.0092191845
87	0xbc008501	-0.007844211
88	0x3ae447a4	0.001741637
89	0x3c005295	0.007832189
90	0x39bfcb7f	0.00036581975
91	0xbbe998c8	-0.0071288086
92	0xbbd49320	-0.006487265
93	0x3b5f6dfe	0.003409266
94	0x3c1d1a7b	0.009588833
95	0xba9ae54e	-0.0011817606
96	0xbaa82a9a	-0.0012830079
97	0x3c13cf56	0.009021601
98	0x3c316121	0.01082638
99	0x3badf981	0.005309284
100	0x3ab66b8d	0.0013917551
101	0xbb34d8c8	-0.0027595032
102	0xbc0c23e8	-0.008553483
103	0xbae844f7	-0.0017720748
104	0xbb8e05a1	-0.004334167
105	0x3b1b1d51	0.0023668597
106	0x3c23a0f5	0.009987106
107	0x3bc2f7dc	0.0059499573
108	0x3b39aec0	0.002833292
109	0xbb42433e	-0.002964213
110	0x3bb94866	0.0056543825
111	0xbc30c173	-0.010788309
112	0xbbd99c23	-0.0066409274
113	0xbbc442de	-0.0059894165
114	0x3c6574e0	0.014004916
115	0xbafa99a3	-0.0019119274
116	0x3c3260b6	0.0108873155
117	0xbc3715ea	-0.011174658
118	0x3c32b6c2	0.010907831
119	0xbc1f7ec3	-0.009734812
120	0x3c050c00	0.008120537
121	0xb9f9ff9f	-0.00047683434
122	0x3c290b55	0.010317643
123	0x39be6551	0.0003631511
124	0x3c24a586	0.0100492295
125	0x3bf68ecc	0.007524347
126	0x3ba21f84	0.0049476046
127	0x3c6d81bd	0.014496264
128	0x3c02f834	0.007993747
129	0x3c31906a	0.010837654
130	0x3c1a23b0	0.009407923
131	0xbc2db929	-0.010603228
132	0x3accc2c8	0.0015622014
133	0xbc14cc42	-0.009081902
134	0xbb07d885	-0.002072842
135	0x3bd64fdc	0.0065402817
136	0x3c1b9850	0.009496763
137	0x3c4642bc	0.012100872
138	0x3aad3445	0.001321443
139	0x3a89054e	0.0010453851
140	0x3bcc9806	0.0062437085
141	0x3bb5b518	0.0055452697
142	0xbb366047	-0.0027828382
143	0x3c35acf6	0.0110886
144	0xbc0441fb	-0.008072372
145	0xbc0421b0	-0.008064672
146	0xbc1e45fe	-0.009660242
147	0xbbafa176	-0.005359824
148	0x3bf8c71d	0.0075920955
149	0xbc0b26a0	-0.008493096
150	0xb95954d6	-0.00020726337
151	0xbc026d44	-0.007960621
152	0x3bca250c	0.006168967
153	0x3b0b2fdd	0.0021238246
154	0x3b81cca3	0.003961162
155	0x3bbe91a2	0.0058157006
156	0x3a0f27a5	0.00054609246
157	0x3c6692ce	0.014073087
158	0x3c59036b	0.013245444
159	0xbb4eefd6	-0.0031576059
160	0x3c398a11	0.0113244215
161	0xbc3e41c3	-0.0116123585
162	0x3b2b53c8	0.0026142467
163	0xbc37183f	-0.011175214
164	0xbab9eca1	-0.0014184901
165	0xbc0300cb	-0.0079957945
166	0x3c3e7f28	0.011626996
167	0xbb5c5278	-0.003361849
168	0xbc4a147b	-0.0123339845
169	0x3c2dfd78	0.010619514
170	0xbbf029a6	-0.0073291836
171	0x3c4dac63	0.012553307
172	0x3c5d7a06	0.013517862
173	0xbbd1b9f8	-0.006400343
174	0xbbd041f9	-0.006355521
175	0x3a872f3c	0.001031376
176	0x3c45829e	0.012055067
177	0x3bda036d	0.0066532404
178	0x3ada700e	0.0016665475
179	0x3b1a4288	0.002353819
180	0xbc1b1c9c	-0.00946727
181	0x3c3f44f1	0.011674152
182	0x3c2ca968	0.0105384365
183	0x3c11a89f	0.0088903
184	0xbc12b61a	-0.008954549
185	0x3b8fe21a	0.004390967
186	0xbba684c4	-0.005081745
187	0x3c655fec	0.01399992
188	0x3b8ffe95	0.004394362
189	0xba9bde95	-0.0011891896
190	0x3ac18424	0.0014764112
191	0x3bb580dc	0.005539043
192	0x3bb4b3b5	0.005514587
193	0x3c12804b	0.00894172
194	0x3b49a177	0.0030766407
195	0x3c5bb87e	0.013410686
196	0xbb04a033	-0.0020237088
197	0xbb094c0b	-0.0020949866
198	0x3be78ce8	0.007066358
199	0xbba97c5e	-0.0051722964
200	0x3b06c0c4	0.0020561675
201	0xbbdee2c5	-0.0068019354
202	0xbc609255	-0.013706763
203	0xbc8b4ea4	-0.017005272
204	0xbb987b22	-0.0046533505
205	0xbc1c2273	-0.009529698
206	0x3ba941da	0.005165321
207	0x3b266eaf	0.0025395562
208	0xbbb2650e	-0.0054441756
209	0x3bbac042	0.0056991884
210	0x3789c8f5	1.642525e-05
211	0xbb5064ff	-0.003179848
212	0x3c486e26	0.012233293
213	0xbbb28d84	-0.005448999
214	0x3be5d81a	0.0070142867
215	0xbb5e3f70	-0.0033912323
216	0x3c244650	0.010026529
217	0x3b67c6f0	0.0035366379
218	0xbb4bee61	-0.0031117427
219	0xbc128f95	-0.008945365
220	0x3b8bd5a5	0.004267412
221	0xbbc0a6aa	-0.005879243
222	0x3a312da5	0.0006758816
223	0x3c2b3bb4	0.010451246
224	0x3b9ca72d	0.004780671
225	0xbc24c168	-0.010055877
226	0xbae610c0	-0.0017552599
227	0x3bdc71cf	0.006727434
228	0xbbd771bb	-0.006574837
229	0x3c0e8a20	0.008699924
230	0x3c39f876	0.011350742
231	0x3baf4847	0.0053491923
232	0x3c621e07	0.013801104
233	0x3c3fa403	0.011696818
234	0x3b746f7a	0.003729789
235	0x3c47d301	0.012196303
236	0x3b60d681	0.0034307542
237	0xbb8d668f	-0.0043152045
238	0x3b9e8c4d	0.0048385025
239	0x3bee2eed	0.0072687776
240	0xbc1a91f4	-0.009434212
241	0x3c1e4148	0.009659119
242	0x3b5be261	0.003355168
243	0xbb8c03c3	-0.0042729094
244	0xbc2e8a93	-0.010653156
245	0xbc2128a1	-0.009836347
246	0x3b3e1dc5	0.0029009443
247	0x3be6053f	0.0070196684
248	0x3c32562e	0.010884805
249	0x3b1e97e3	0.0024199418
250	0xbb9edbb5	-0.0048479685
251	0x3c010a6a	0.007876018
252	0x3c53b68c	0.012921941
253	0x3ba30f86	0.004976216
254	0xba150906	-0.00056852435
255	0x3b2c4982	0.0026288931
